[
    {
        "id": 2067379869,
        "node_id": "MDE3OlJlbmFtZWRUaXRsZUV2ZW50MjA2NzM3OTg2OQ==",
        "url": "https://api.github.com/repos/microsoft/onnxruntime/issues/events/2067379869",
        "actor": {
            "login": "zaidao2023",
            "id": 23253877,
            "node_id": "MDQ6VXNlcjIzMjUzODc3",
            "avatar_url": "https://avatars.githubusercontent.com/u/23253877?v=4",
            "gravatar_id": "",
            "url": "https://api.github.com/users/zaidao2023",
            "html_url": "https://github.com/zaidao2023",
            "followers_url": "https://api.github.com/users/zaidao2023/followers",
            "following_url": "https://api.github.com/users/zaidao2023/following{/other_user}",
            "gists_url": "https://api.github.com/users/zaidao2023/gists{/gist_id}",
            "starred_url": "https://api.github.com/users/zaidao2023/starred{/owner}{/repo}",
            "subscriptions_url": "https://api.github.com/users/zaidao2023/subscriptions",
            "organizations_url": "https://api.github.com/users/zaidao2023/orgs",
            "repos_url": "https://api.github.com/users/zaidao2023/repos",
            "events_url": "https://api.github.com/users/zaidao2023/events{/privacy}",
            "received_events_url": "https://api.github.com/users/zaidao2023/received_events",
            "type": "User",
            "site_admin": false
        },
        "event": "renamed",
        "commit_id": null,
        "commit_url": null,
        "created_at": "2019-01-11T00:54:18Z",
        "rename": {
            "from": "python 环境下： onnxtuntime 对tensorflow 转换后的模型加载失败，在onnx上可以用",
            "to": "python api, onnxtuntime load model error, mod"
        },
        "performed_via_github_app": null
    },
    {
        "id": 2067380032,
        "node_id": "MDE3OlJlbmFtZWRUaXRsZUV2ZW50MjA2NzM4MDAzMg==",
        "url": "https://api.github.com/repos/microsoft/onnxruntime/issues/events/2067380032",
        "actor": {
            "login": "zaidao2023",
            "id": 23253877,
            "node_id": "MDQ6VXNlcjIzMjUzODc3",
            "avatar_url": "https://avatars.githubusercontent.com/u/23253877?v=4",
            "gravatar_id": "",
            "url": "https://api.github.com/users/zaidao2023",
            "html_url": "https://github.com/zaidao2023",
            "followers_url": "https://api.github.com/users/zaidao2023/followers",
            "following_url": "https://api.github.com/users/zaidao2023/following{/other_user}",
            "gists_url": "https://api.github.com/users/zaidao2023/gists{/gist_id}",
            "starred_url": "https://api.github.com/users/zaidao2023/starred{/owner}{/repo}",
            "subscriptions_url": "https://api.github.com/users/zaidao2023/subscriptions",
            "organizations_url": "https://api.github.com/users/zaidao2023/orgs",
            "repos_url": "https://api.github.com/users/zaidao2023/repos",
            "events_url": "https://api.github.com/users/zaidao2023/events{/privacy}",
            "received_events_url": "https://api.github.com/users/zaidao2023/received_events",
            "type": "User",
            "site_admin": false
        },
        "event": "renamed",
        "commit_id": null,
        "commit_url": null,
        "created_at": "2019-01-11T00:54:25Z",
        "rename": {
            "from": "python api, onnxtuntime load model error, mod",
            "to": "python api, onnxtuntime load model error"
        },
        "performed_via_github_app": null
    },
    {
        "url": "https://api.github.com/repos/microsoft/onnxruntime/issues/comments/453333318",
        "html_url": "https://github.com/microsoft/onnxruntime/issues/310#issuecomment-453333318",
        "issue_url": "https://api.github.com/repos/microsoft/onnxruntime/issues/310",
        "id": 453333318,
        "node_id": "MDEyOklzc3VlQ29tbWVudDQ1MzMzMzMxOA==",
        "user": {
            "login": "snnn",
            "id": 856316,
            "node_id": "MDQ6VXNlcjg1NjMxNg==",
            "avatar_url": "https://avatars.githubusercontent.com/u/856316?v=4",
            "gravatar_id": "",
            "url": "https://api.github.com/users/snnn",
            "html_url": "https://github.com/snnn",
            "followers_url": "https://api.github.com/users/snnn/followers",
            "following_url": "https://api.github.com/users/snnn/following{/other_user}",
            "gists_url": "https://api.github.com/users/snnn/gists{/gist_id}",
            "starred_url": "https://api.github.com/users/snnn/starred{/owner}{/repo}",
            "subscriptions_url": "https://api.github.com/users/snnn/subscriptions",
            "organizations_url": "https://api.github.com/users/snnn/orgs",
            "repos_url": "https://api.github.com/users/snnn/repos",
            "events_url": "https://api.github.com/users/snnn/events{/privacy}",
            "received_events_url": "https://api.github.com/users/snnn/received_events",
            "type": "User",
            "site_admin": false
        },
        "created_at": "2019-01-11T01:26:06Z",
        "updated_at": "2019-01-11T01:26:06Z",
        "author_association": "MEMBER",
        "body": "Not an issue.\r\nhttps://github.com/onnx/onnx/blob/master/docs/Operators.md#Reshape\r\n\r\nYour model is wrong.",
        "reactions": {
            "url": "https://api.github.com/repos/microsoft/onnxruntime/issues/comments/453333318/reactions",
            "total_count": 0,
            "+1": 0,
            "-1": 0,
            "laugh": 0,
            "hooray": 0,
            "confused": 0,
            "heart": 0,
            "rocket": 0,
            "eyes": 0
        },
        "performed_via_github_app": null,
        "event": "commented",
        "actor": {
            "login": "snnn",
            "id": 856316,
            "node_id": "MDQ6VXNlcjg1NjMxNg==",
            "avatar_url": "https://avatars.githubusercontent.com/u/856316?v=4",
            "gravatar_id": "",
            "url": "https://api.github.com/users/snnn",
            "html_url": "https://github.com/snnn",
            "followers_url": "https://api.github.com/users/snnn/followers",
            "following_url": "https://api.github.com/users/snnn/following{/other_user}",
            "gists_url": "https://api.github.com/users/snnn/gists{/gist_id}",
            "starred_url": "https://api.github.com/users/snnn/starred{/owner}{/repo}",
            "subscriptions_url": "https://api.github.com/users/snnn/subscriptions",
            "organizations_url": "https://api.github.com/users/snnn/orgs",
            "repos_url": "https://api.github.com/users/snnn/repos",
            "events_url": "https://api.github.com/users/snnn/events{/privacy}",
            "received_events_url": "https://api.github.com/users/snnn/received_events",
            "type": "User",
            "site_admin": false
        }
    },
    {
        "id": 2067421292,
        "node_id": "MDExOkNsb3NlZEV2ZW50MjA2NzQyMTI5Mg==",
        "url": "https://api.github.com/repos/microsoft/onnxruntime/issues/events/2067421292",
        "actor": {
            "login": "snnn",
            "id": 856316,
            "node_id": "MDQ6VXNlcjg1NjMxNg==",
            "avatar_url": "https://avatars.githubusercontent.com/u/856316?v=4",
            "gravatar_id": "",
            "url": "https://api.github.com/users/snnn",
            "html_url": "https://github.com/snnn",
            "followers_url": "https://api.github.com/users/snnn/followers",
            "following_url": "https://api.github.com/users/snnn/following{/other_user}",
            "gists_url": "https://api.github.com/users/snnn/gists{/gist_id}",
            "starred_url": "https://api.github.com/users/snnn/starred{/owner}{/repo}",
            "subscriptions_url": "https://api.github.com/users/snnn/subscriptions",
            "organizations_url": "https://api.github.com/users/snnn/orgs",
            "repos_url": "https://api.github.com/users/snnn/repos",
            "events_url": "https://api.github.com/users/snnn/events{/privacy}",
            "received_events_url": "https://api.github.com/users/snnn/received_events",
            "type": "User",
            "site_admin": false
        },
        "event": "closed",
        "commit_id": null,
        "commit_url": null,
        "created_at": "2019-01-11T01:26:06Z",
        "state_reason": null,
        "performed_via_github_app": null
    },
    {
        "url": "https://api.github.com/repos/microsoft/onnxruntime/issues/comments/453333645",
        "html_url": "https://github.com/microsoft/onnxruntime/issues/310#issuecomment-453333645",
        "issue_url": "https://api.github.com/repos/microsoft/onnxruntime/issues/310",
        "id": 453333645,
        "node_id": "MDEyOklzc3VlQ29tbWVudDQ1MzMzMzY0NQ==",
        "user": {
            "login": "snnn",
            "id": 856316,
            "node_id": "MDQ6VXNlcjg1NjMxNg==",
            "avatar_url": "https://avatars.githubusercontent.com/u/856316?v=4",
            "gravatar_id": "",
            "url": "https://api.github.com/users/snnn",
            "html_url": "https://github.com/snnn",
            "followers_url": "https://api.github.com/users/snnn/followers",
            "following_url": "https://api.github.com/users/snnn/following{/other_user}",
            "gists_url": "https://api.github.com/users/snnn/gists{/gist_id}",
            "starred_url": "https://api.github.com/users/snnn/starred{/owner}{/repo}",
            "subscriptions_url": "https://api.github.com/users/snnn/subscriptions",
            "organizations_url": "https://api.github.com/users/snnn/orgs",
            "repos_url": "https://api.github.com/users/snnn/repos",
            "events_url": "https://api.github.com/users/snnn/events{/privacy}",
            "received_events_url": "https://api.github.com/users/snnn/received_events",
            "type": "User",
            "site_admin": false
        },
        "created_at": "2019-01-11T01:27:11Z",
        "updated_at": "2019-01-11T01:27:11Z",
        "author_association": "MEMBER",
        "body": "If it's a converter bug, please report bug to their project.",
        "reactions": {
            "url": "https://api.github.com/repos/microsoft/onnxruntime/issues/comments/453333645/reactions",
            "total_count": 0,
            "+1": 0,
            "-1": 0,
            "laugh": 0,
            "hooray": 0,
            "confused": 0,
            "heart": 0,
            "rocket": 0,
            "eyes": 0
        },
        "performed_via_github_app": null,
        "event": "commented",
        "actor": {
            "login": "snnn",
            "id": 856316,
            "node_id": "MDQ6VXNlcjg1NjMxNg==",
            "avatar_url": "https://avatars.githubusercontent.com/u/856316?v=4",
            "gravatar_id": "",
            "url": "https://api.github.com/users/snnn",
            "html_url": "https://github.com/snnn",
            "followers_url": "https://api.github.com/users/snnn/followers",
            "following_url": "https://api.github.com/users/snnn/following{/other_user}",
            "gists_url": "https://api.github.com/users/snnn/gists{/gist_id}",
            "starred_url": "https://api.github.com/users/snnn/starred{/owner}{/repo}",
            "subscriptions_url": "https://api.github.com/users/snnn/subscriptions",
            "organizations_url": "https://api.github.com/users/snnn/orgs",
            "repos_url": "https://api.github.com/users/snnn/repos",
            "events_url": "https://api.github.com/users/snnn/events{/privacy}",
            "received_events_url": "https://api.github.com/users/snnn/received_events",
            "type": "User",
            "site_admin": false
        }
    },
    {
        "url": "https://api.github.com/repos/microsoft/onnxruntime/issues/comments/481154061",
        "html_url": "https://github.com/microsoft/onnxruntime/issues/310#issuecomment-481154061",
        "issue_url": "https://api.github.com/repos/microsoft/onnxruntime/issues/310",
        "id": 481154061,
        "node_id": "MDEyOklzc3VlQ29tbWVudDQ4MTE1NDA2MQ==",
        "user": {
            "login": "YuchaoZheng",
            "id": 29890494,
            "node_id": "MDQ6VXNlcjI5ODkwNDk0",
            "avatar_url": "https://avatars.githubusercontent.com/u/29890494?v=4",
            "gravatar_id": "",
            "url": "https://api.github.com/users/YuchaoZheng",
            "html_url": "https://github.com/YuchaoZheng",
            "followers_url": "https://api.github.com/users/YuchaoZheng/followers",
            "following_url": "https://api.github.com/users/YuchaoZheng/following{/other_user}",
            "gists_url": "https://api.github.com/users/YuchaoZheng/gists{/gist_id}",
            "starred_url": "https://api.github.com/users/YuchaoZheng/starred{/owner}{/repo}",
            "subscriptions_url": "https://api.github.com/users/YuchaoZheng/subscriptions",
            "organizations_url": "https://api.github.com/users/YuchaoZheng/orgs",
            "repos_url": "https://api.github.com/users/YuchaoZheng/repos",
            "events_url": "https://api.github.com/users/YuchaoZheng/events{/privacy}",
            "received_events_url": "https://api.github.com/users/YuchaoZheng/received_events",
            "type": "User",
            "site_admin": false
        },
        "created_at": "2019-04-09T08:26:31Z",
        "updated_at": "2019-04-09T08:26:31Z",
        "author_association": "NONE",
        "body": "I have the same problem. @zaidao2023 @snnn ",
        "reactions": {
            "url": "https://api.github.com/repos/microsoft/onnxruntime/issues/comments/481154061/reactions",
            "total_count": 0,
            "+1": 0,
            "-1": 0,
            "laugh": 0,
            "hooray": 0,
            "confused": 0,
            "heart": 0,
            "rocket": 0,
            "eyes": 0
        },
        "performed_via_github_app": null,
        "event": "commented",
        "actor": {
            "login": "YuchaoZheng",
            "id": 29890494,
            "node_id": "MDQ6VXNlcjI5ODkwNDk0",
            "avatar_url": "https://avatars.githubusercontent.com/u/29890494?v=4",
            "gravatar_id": "",
            "url": "https://api.github.com/users/YuchaoZheng",
            "html_url": "https://github.com/YuchaoZheng",
            "followers_url": "https://api.github.com/users/YuchaoZheng/followers",
            "following_url": "https://api.github.com/users/YuchaoZheng/following{/other_user}",
            "gists_url": "https://api.github.com/users/YuchaoZheng/gists{/gist_id}",
            "starred_url": "https://api.github.com/users/YuchaoZheng/starred{/owner}{/repo}",
            "subscriptions_url": "https://api.github.com/users/YuchaoZheng/subscriptions",
            "organizations_url": "https://api.github.com/users/YuchaoZheng/orgs",
            "repos_url": "https://api.github.com/users/YuchaoZheng/repos",
            "events_url": "https://api.github.com/users/YuchaoZheng/events{/privacy}",
            "received_events_url": "https://api.github.com/users/YuchaoZheng/received_events",
            "type": "User",
            "site_admin": false
        }
    },
    {
        "id": 2262043183,
        "node_id": "MDE0Ok1lbnRpb25lZEV2ZW50MjI2MjA0MzE4Mw==",
        "url": "https://api.github.com/repos/microsoft/onnxruntime/issues/events/2262043183",
        "actor": {
            "login": "snnn",
            "id": 856316,
            "node_id": "MDQ6VXNlcjg1NjMxNg==",
            "avatar_url": "https://avatars.githubusercontent.com/u/856316?v=4",
            "gravatar_id": "",
            "url": "https://api.github.com/users/snnn",
            "html_url": "https://github.com/snnn",
            "followers_url": "https://api.github.com/users/snnn/followers",
            "following_url": "https://api.github.com/users/snnn/following{/other_user}",
            "gists_url": "https://api.github.com/users/snnn/gists{/gist_id}",
            "starred_url": "https://api.github.com/users/snnn/starred{/owner}{/repo}",
            "subscriptions_url": "https://api.github.com/users/snnn/subscriptions",
            "organizations_url": "https://api.github.com/users/snnn/orgs",
            "repos_url": "https://api.github.com/users/snnn/repos",
            "events_url": "https://api.github.com/users/snnn/events{/privacy}",
            "received_events_url": "https://api.github.com/users/snnn/received_events",
            "type": "User",
            "site_admin": false
        },
        "event": "mentioned",
        "commit_id": null,
        "commit_url": null,
        "created_at": "2019-04-09T08:26:31Z",
        "performed_via_github_app": null
    },
    {
        "id": 2262043184,
        "node_id": "MDE1OlN1YnNjcmliZWRFdmVudDIyNjIwNDMxODQ=",
        "url": "https://api.github.com/repos/microsoft/onnxruntime/issues/events/2262043184",
        "actor": {
            "login": "snnn",
            "id": 856316,
            "node_id": "MDQ6VXNlcjg1NjMxNg==",
            "avatar_url": "https://avatars.githubusercontent.com/u/856316?v=4",
            "gravatar_id": "",
            "url": "https://api.github.com/users/snnn",
            "html_url": "https://github.com/snnn",
            "followers_url": "https://api.github.com/users/snnn/followers",
            "following_url": "https://api.github.com/users/snnn/following{/other_user}",
            "gists_url": "https://api.github.com/users/snnn/gists{/gist_id}",
            "starred_url": "https://api.github.com/users/snnn/starred{/owner}{/repo}",
            "subscriptions_url": "https://api.github.com/users/snnn/subscriptions",
            "organizations_url": "https://api.github.com/users/snnn/orgs",
            "repos_url": "https://api.github.com/users/snnn/repos",
            "events_url": "https://api.github.com/users/snnn/events{/privacy}",
            "received_events_url": "https://api.github.com/users/snnn/received_events",
            "type": "User",
            "site_admin": false
        },
        "event": "subscribed",
        "commit_id": null,
        "commit_url": null,
        "created_at": "2019-04-09T08:26:31Z",
        "performed_via_github_app": null
    },
    {
        "id": 2262043190,
        "node_id": "MDE0Ok1lbnRpb25lZEV2ZW50MjI2MjA0MzE5MA==",
        "url": "https://api.github.com/repos/microsoft/onnxruntime/issues/events/2262043190",
        "actor": {
            "login": "zaidao2023",
            "id": 23253877,
            "node_id": "MDQ6VXNlcjIzMjUzODc3",
            "avatar_url": "https://avatars.githubusercontent.com/u/23253877?v=4",
            "gravatar_id": "",
            "url": "https://api.github.com/users/zaidao2023",
            "html_url": "https://github.com/zaidao2023",
            "followers_url": "https://api.github.com/users/zaidao2023/followers",
            "following_url": "https://api.github.com/users/zaidao2023/following{/other_user}",
            "gists_url": "https://api.github.com/users/zaidao2023/gists{/gist_id}",
            "starred_url": "https://api.github.com/users/zaidao2023/starred{/owner}{/repo}",
            "subscriptions_url": "https://api.github.com/users/zaidao2023/subscriptions",
            "organizations_url": "https://api.github.com/users/zaidao2023/orgs",
            "repos_url": "https://api.github.com/users/zaidao2023/repos",
            "events_url": "https://api.github.com/users/zaidao2023/events{/privacy}",
            "received_events_url": "https://api.github.com/users/zaidao2023/received_events",
            "type": "User",
            "site_admin": false
        },
        "event": "mentioned",
        "commit_id": null,
        "commit_url": null,
        "created_at": "2019-04-09T08:26:31Z",
        "performed_via_github_app": null
    },
    {
        "id": 2262043192,
        "node_id": "MDE1OlN1YnNjcmliZWRFdmVudDIyNjIwNDMxOTI=",
        "url": "https://api.github.com/repos/microsoft/onnxruntime/issues/events/2262043192",
        "actor": {
            "login": "zaidao2023",
            "id": 23253877,
            "node_id": "MDQ6VXNlcjIzMjUzODc3",
            "avatar_url": "https://avatars.githubusercontent.com/u/23253877?v=4",
            "gravatar_id": "",
            "url": "https://api.github.com/users/zaidao2023",
            "html_url": "https://github.com/zaidao2023",
            "followers_url": "https://api.github.com/users/zaidao2023/followers",
            "following_url": "https://api.github.com/users/zaidao2023/following{/other_user}",
            "gists_url": "https://api.github.com/users/zaidao2023/gists{/gist_id}",
            "starred_url": "https://api.github.com/users/zaidao2023/starred{/owner}{/repo}",
            "subscriptions_url": "https://api.github.com/users/zaidao2023/subscriptions",
            "organizations_url": "https://api.github.com/users/zaidao2023/orgs",
            "repos_url": "https://api.github.com/users/zaidao2023/repos",
            "events_url": "https://api.github.com/users/zaidao2023/events{/privacy}",
            "received_events_url": "https://api.github.com/users/zaidao2023/received_events",
            "type": "User",
            "site_admin": false
        },
        "event": "subscribed",
        "commit_id": null,
        "commit_url": null,
        "created_at": "2019-04-09T08:26:31Z",
        "performed_via_github_app": null
    },
    {
        "url": "https://api.github.com/repos/microsoft/onnxruntime/issues/comments/481154883",
        "html_url": "https://github.com/microsoft/onnxruntime/issues/310#issuecomment-481154883",
        "issue_url": "https://api.github.com/repos/microsoft/onnxruntime/issues/310",
        "id": 481154883,
        "node_id": "MDEyOklzc3VlQ29tbWVudDQ4MTE1NDg4Mw==",
        "user": {
            "login": "YuchaoZheng",
            "id": 29890494,
            "node_id": "MDQ6VXNlcjI5ODkwNDk0",
            "avatar_url": "https://avatars.githubusercontent.com/u/29890494?v=4",
            "gravatar_id": "",
            "url": "https://api.github.com/users/YuchaoZheng",
            "html_url": "https://github.com/YuchaoZheng",
            "followers_url": "https://api.github.com/users/YuchaoZheng/followers",
            "following_url": "https://api.github.com/users/YuchaoZheng/following{/other_user}",
            "gists_url": "https://api.github.com/users/YuchaoZheng/gists{/gist_id}",
            "starred_url": "https://api.github.com/users/YuchaoZheng/starred{/owner}{/repo}",
            "subscriptions_url": "https://api.github.com/users/YuchaoZheng/subscriptions",
            "organizations_url": "https://api.github.com/users/YuchaoZheng/orgs",
            "repos_url": "https://api.github.com/users/YuchaoZheng/repos",
            "events_url": "https://api.github.com/users/YuchaoZheng/events{/privacy}",
            "received_events_url": "https://api.github.com/users/YuchaoZheng/received_events",
            "type": "User",
            "site_admin": false
        },
        "created_at": "2019-04-09T08:28:58Z",
        "updated_at": "2019-04-09T08:28:58Z",
        "author_association": "NONE",
        "body": "I have the same problem when run a modle which is convert from tensorflow to onnx.\r\nThe shape is defaulted to read from the file\r\n`graph graph (\r\n  %OCR[FLOAT, 1x1536x768x3]\r\n) initializers (\r\n  %distill_conv1/weights[FLOAT, 3x3x3x16]\r\n  %distill_conv1/biases[FLOAT, 16]\r\n  %distill_conv2/weights[FLOAT, 3x3x16x32]\r\n  %distill_conv2/biases[FLOAT, 32]\r\n  %distill_conv3_1s/weights[FLOAT, 1x1x32x16]\r\n  %distill_conv3_1s/biases[FLOAT, 16]\r\n  %distill_conv3_1/weights[FLOAT, 3x3x16x128]\r\n  %distill_conv3_1/biases[FLOAT, 128]\r\n  %distill_conv3_2s/weights[FLOAT, 1x1x128x16]\r\n  %distill_conv3_2s/biases[FLOAT, 16]\r\n  %distill_conv3_2/weights[FLOAT, 3x3x16x128]\r\n  %distill_conv3_2/biases[FLOAT, 128]\r\n  %distill_conv4_1s/weights[FLOAT, 1x1x128x32]\r\n  %distill_conv4_1s/biases[FLOAT, 32]\r\n  %distill_conv4_1/weights[FLOAT, 3x3x32x256]\r\n  %distill_conv4_1/biases[FLOAT, 256]\r\n  %distill_conv4_2s/weights[FLOAT, 1x1x256x32]\r\n  %distill_conv4_2s/biases[FLOAT, 32]\r\n  %distill_conv4_2/weights[FLOAT, 3x3x32x256]\r\n  %distill_conv4_2/biases[FLOAT, 256]\r\n  %distill_conv5_1s/weights[FLOAT, 1x1x256x64]\r\n  %distill_conv5_1s/biases[FLOAT, 64]\r\n  %distill_conv5_1/weights[FLOAT, 3x3x64x512]\r\n  %distill_conv5_1/biases[FLOAT, 512]\r\n  %distill_conv5_2s/weights[FLOAT, 1x1x512x64]\r\n  %distill_conv5_2s/biases[FLOAT, 64]\r\n  %distill_conv5_2/weights[FLOAT, 3x3x64x512]\r\n  %distill_conv5_2/biases[FLOAT, 512]\r\n  %distill_convfeat/weights[FLOAT, 1x1x512x16]\r\n  %im2seq/Reshape/shape[INT32, 4]\r\n) {\r\n  %pad_before_distill_conv1 = Pad[mode = 'constant', pads = [0, 3, 1, 0, 0, 3, 1, 0], value = 0](%OCR)\r\n  %distill_conv1/weights/read = Identity(%distill_conv1/weights)\r\n  %distill_conv1/weights/read_T_8959c9b3 = Transpose[perm = [3, 2, 0, 1]](%distill_conv1/weights/read)\r\n  %pad_before_distill_conv1_T_472a5af4 = Transpose[perm = [0, 3, 1, 2]](%pad_before_distill_conv1)\r\n  %distill_conv1/Conv2D_a9d68cff = Conv[dilations = [1, 1], group = 1, kernel_shape = [3, 3], pads = [0, 0, 0, 0], strides = [1, 1]](%pad_before_distill_conv1_T_472a5af4, %distill_conv1/weights/read_T_8959c9b3)\r\n  %distill_conv1/Conv2D = Transpose[perm = [0, 2, 3, 1]](%distill_conv1/Conv2D_a9d68cff)\r\n  %distill_conv1/biases/read = Identity(%distill_conv1/biases)\r\n  %distill_conv1/BiasAdd = Add(%distill_conv1/Conv2D, %distill_conv1/biases/read)\r\n  %distill_conv1/distill_conv1 = Relu(%distill_conv1/BiasAdd)\r\n  %distill_conv1/distill_conv1_T_cab5c6d9 = Transpose[perm = [0, 3, 1, 2]](%distill_conv1/distill_conv1)\r\n  %distill_pool1_271125b3 = MaxPool[kernel_shape = [2, 2], pads = [0, 0, 0, 0], strides = [2, 2]](%distill_conv1/distill_conv1_T_cab5c6d9)\r\n  %distill_pool1 = Transpose[perm = [0, 2, 3, 1]](%distill_pool1_271125b3)\r\n  %pad_before_distill_conv2 = Pad[mode = 'constant', pads = [0, 1, 1, 0, 0, 1, 1, 0], value = 0](%distill_pool1)\r\n  %distill_conv2/weights/read = Identity(%distill_conv2/weights)\r\n  %distill_conv2/weights/read_T_8d9e87b8 = Transpose[perm = [3, 2, 0, 1]](%distill_conv2/weights/read)\r\n  %pad_before_distill_conv2_T_e21841c4 = Transpose[perm = [0, 3, 1, 2]](%pad_before_distill_conv2)\r\n  %distill_conv2/Conv2D_17d43150 = Conv[dilations = [1, 1], group = 1, kernel_shape = [3, 3], pads = [0, 0, 0, 0], strides = [1, 1]](%pad_before_distill_conv2_T_e21841c4, %distill_conv2/weights/read_T_8d9e87b8)\r\n  %distill_conv2/Conv2D = Transpose[perm = [0, 2, 3, 1]](%distill_conv2/Conv2D_17d43150)\r\n  %distill_conv2/biases/read = Identity(%distill_conv2/biases)\r\n  %distill_conv2/BiasAdd = Add(%distill_conv2/Conv2D, %distill_conv2/biases/read)\r\n  %distill_relu2 = Relu(%distill_conv2/BiasAdd)\r\n  %distill_relu2_T_a7a6f65c = Transpose[perm = [0, 3, 1, 2]](%distill_relu2)\r\n  %distill_pool2_f94357b1 = MaxPool[kernel_shape = [2, 2], pads = [0, 0, 0, 0], strides = [2, 2]](%distill_relu2_T_a7a6f65c)\r\n  %distill_pool2 = Transpose[perm = [0, 2, 3, 1]](%distill_pool2_f94357b1)\r\n  %distill_conv3_1s/weights/read = Identity(%distill_conv3_1s/weights)\r\n  %distill_conv3_1s/weights/read_T_8c17c4cd = Transpose[perm = [3, 2, 0, 1]](%distill_conv3_1s/weights/read)\r\n  %distill_pool2_T_2eb5f6c3 = Transpose[perm = [0, 3, 1, 2]](%distill_pool2)\r\n  %distill_conv3_1s/Conv2D_8313a973 = Conv[dilations = [1, 1], group = 1, kernel_shape = [1, 1], pads = [0, 0, 0, 0], strides = [1, 1]](%distill_pool2_T_2eb5f6c3, %distill_conv3_1s/weights/read_T_8c17c4cd)\r\n  %distill_conv3_1s/Conv2D = Transpose[perm = [0, 2, 3, 1]](%distill_conv3_1s/Conv2D_8313a973)\r\n  %distill_conv3_1s/biases/read = Identity(%distill_conv3_1s/biases)\r\n  %distill_conv3_1s/BiasAdd = Add(%distill_conv3_1s/Conv2D, %distill_conv3_1s/biases/read)\r\n  %pad_before_distill_conv3_1 = Pad[mode = 'constant', pads = [0, 1, 1, 0, 0, 1, 1, 0], value = 0](%distill_conv3_1s/BiasAdd)\r\n  %distill_conv3_1/weights/read = Identity(%distill_conv3_1/weights)\r\n  %distill_conv3_1/weights/read_T_74b89c2c = Transpose[perm = [3, 2, 0, 1]](%distill_conv3_1/weights/read)\r\n  %pad_before_distill_conv3_1_T_41e5be90 = Transpose[perm = [0, 3, 1, 2]](%pad_before_distill_conv3_1)\r\n  %distill_conv3_1/Conv2D_2e0e9efa = Conv[dilations = [1, 1], group = 1, kernel_shape = [3, 3], pads = [0, 0, 0, 0], strides = [1, 1]](%pad_before_distill_conv3_1_T_41e5be90, %distill_conv3_1/weights/read_T_74b89c2c)\r\n  %distill_conv3_1/Conv2D = Transpose[perm = [0, 2, 3, 1]](%distill_conv3_1/Conv2D_2e0e9efa)\r\n  %distill_conv3_1/biases/read = Identity(%distill_conv3_1/biases)\r\n  %distill_conv3_1/BiasAdd = Add(%distill_conv3_1/Conv2D, %distill_conv3_1/biases/read)\r\n  %distill_conv3_1/distill_conv3_1 = Relu(%distill_conv3_1/BiasAdd)\r\n  %distill_conv3_2s/weights/read = Identity(%distill_conv3_2s/weights)\r\n  %distill_conv3_2s/weights/read_T_ab6b3071 = Transpose[perm = [3, 2, 0, 1]](%distill_conv3_2s/weights/read)\r\n  %distill_conv3_1/distill_conv3_1_T_dce0a796 = Transpose[perm = [0, 3, 1, 2]](%distill_conv3_1/distill_conv3_1)\r\n  %distill_conv3_2s/Conv2D_aaf97aec = Conv[dilations = [1, 1], group = 1, kernel_shape = [1, 1], pads = [0, 0, 0, 0], strides = [1, 1]](%distill_conv3_1/distill_conv3_1_T_dce0a796, %distill_conv3_2s/weights/read_T_ab6b3071)\r\n  %distill_conv3_2s/Conv2D = Transpose[perm = [0, 2, 3, 1]](%distill_conv3_2s/Conv2D_aaf97aec)\r\n  %distill_conv3_2s/biases/read = Identity(%distill_conv3_2s/biases)\r\n  %distill_conv3_2s/BiasAdd = Add(%distill_conv3_2s/Conv2D, %distill_conv3_2s/biases/read)\r\n  %pad_before_distill_conv3_2 = Pad[mode = 'constant', pads = [0, 1, 1, 0, 0, 1, 1, 0], value = 0](%distill_conv3_2s/BiasAdd)\r\n  %distill_conv3_2/weights/read = Identity(%distill_conv3_2/weights)\r\n  %distill_conv3_2/weights/read_T_0639a50c = Transpose[perm = [3, 2, 0, 1]](%distill_conv3_2/weights/read)\r\n  %pad_before_distill_conv3_2_T_b1e4f162 = Transpose[perm = [0, 3, 1, 2]](%pad_before_distill_conv3_2)\r\n  %distill_conv3_2/Conv2D_57eefa0e = Conv[dilations = [1, 1], group = 1, kernel_shape = [3, 3], pads = [0, 0, 0, 0], strides = [1, 1]](%pad_before_distill_conv3_2_T_b1e4f162, %distill_conv3_2/weights/read_T_0639a50c)\r\n  %distill_conv3_2/Conv2D = Transpose[perm = [0, 2, 3, 1]](%distill_conv3_2/Conv2D_57eefa0e)\r\n  %distill_conv3_2/biases/read = Identity(%distill_conv3_2/biases)\r\n  %distill_conv3_2/BiasAdd = Add(%distill_conv3_2/Conv2D, %distill_conv3_2/biases/read)\r\n  %distill_relu3_2 = Relu(%distill_conv3_2/BiasAdd)\r\n  %distill_relu3_2_T_9cddff9d = Transpose[perm = [0, 3, 1, 2]](%distill_relu3_2)\r\n  %distill_pool3_a4c2bb77 = MaxPool[kernel_shape = [2, 1], pads = [0, 0, 1, 0], strides = [2, 1]](%distill_relu3_2_T_9cddff9d)\r\n  %distill_pool3 = Transpose[perm = [0, 2, 3, 1]](%distill_pool3_a4c2bb77)\r\n  %distill_conv4_1s/weights/read = Identity(%distill_conv4_1s/weights)\r\n  %distill_conv4_1s/weights/read_T_2a3b86e3 = Transpose[perm = [3, 2, 0, 1]](%distill_conv4_1s/weights/read)\r\n  %distill_pool3_T_84b112d1 = Transpose[perm = [0, 3, 1, 2]](%distill_pool3)\r\n  %distill_conv4_1s/Conv2D_a7006e40 = Conv[dilations = [1, 1], group = 1, kernel_shape = [1, 1], pads = [0, 0, 0, 0], strides = [1, 1]](%distill_pool3_T_84b112d1, %distill_conv4_1s/weights/read_T_2a3b86e3)\r\n  %distill_conv4_1s/Conv2D = Transpose[perm = [0, 2, 3, 1]](%distill_conv4_1s/Conv2D_a7006e40)\r\n  %distill_conv4_1s/biases/read = Identity(%distill_conv4_1s/biases)\r\n  %distill_conv4_1s/BiasAdd = Add(%distill_conv4_1s/Conv2D, %distill_conv4_1s/biases/read)\r\n  %pad_before_distill_conv4_1 = Pad[mode = 'constant', pads = [0, 1, 1, 0, 0, 1, 1, 0], value = 0](%distill_conv4_1s/BiasAdd)\r\n  %distill_conv4_1/weights/read = Identity(%distill_conv4_1/weights)\r\n  %distill_conv4_1/weights/read_T_6cb77bdd = Transpose[perm = [3, 2, 0, 1]](%distill_conv4_1/weights/read)\r\n  %pad_before_distill_conv4_1_T_41a021a3 = Transpose[perm = [0, 3, 1, 2]](%pad_before_distill_conv4_1)\r\n  %distill_conv4_1/Conv2D_f1d0c14f = Conv[dilations = [1, 1], group = 1, kernel_shape = [3, 3], pads = [0, 0, 0, 0], strides = [1, 1]](%pad_before_distill_conv4_1_T_41a021a3, %distill_conv4_1/weights/read_T_6cb77bdd)\r\n  %distill_conv4_1/Conv2D = Transpose[perm = [0, 2, 3, 1]](%distill_conv4_1/Conv2D_f1d0c14f)\r\n  %distill_conv4_1/biases/read = Identity(%distill_conv4_1/biases)\r\n  %distill_conv4_1/BiasAdd = Add(%distill_conv4_1/Conv2D, %distill_conv4_1/biases/read)\r\n  %distill_conv4_1/distill_conv4_1 = Relu(%distill_conv4_1/BiasAdd)\r\n  %distill_conv4_2s/weights/read = Identity(%distill_conv4_2s/weights)\r\n  %distill_conv4_2s/weights/read_T_dd89c96e = Transpose[perm = [3, 2, 0, 1]](%distill_conv4_2s/weights/read)\r\n  %distill_conv4_1/distill_conv4_1_T_c0b85cef = Transpose[perm = [0, 3, 1, 2]](%distill_conv4_1/distill_conv4_1)\r\n  %distill_conv4_2s/Conv2D_a8d1a84f = Conv[dilations = [1, 1], group = 1, kernel_shape = [1, 1], pads = [0, 0, 0, 0], strides = [1, 1]](%distill_conv4_1/distill_conv4_1_T_c0b85cef, %distill_conv4_2s/weights/read_T_dd89c96e)\r\n  %distill_conv4_2s/Conv2D = Transpose[perm = [0, 2, 3, 1]](%distill_conv4_2s/Conv2D_a8d1a84f)\r\n  %distill_conv4_2s/biases/read = Identity(%distill_conv4_2s/biases)\r\n  %distill_conv4_2s/BiasAdd = Add(%distill_conv4_2s/Conv2D, %distill_conv4_2s/biases/read)\r\n  %pad_before_distill_conv4_2 = Pad[mode = 'constant', pads = [0, 1, 1, 0, 0, 1, 1, 0], value = 0](%distill_conv4_2s/BiasAdd)\r\n  %distill_conv4_2/weights/read = Identity(%distill_conv4_2/weights)\r\n  %distill_conv4_2/weights/read_T_84155f43 = Transpose[perm = [3, 2, 0, 1]](%distill_conv4_2/weights/read)\r\n  %pad_before_distill_conv4_2_T_ca20ed28 = Transpose[perm = [0, 3, 1, 2]](%pad_before_distill_conv4_2)\r\n  %distill_conv4_2/Conv2D_cb2641b7 = Conv[dilations = [1, 1], group = 1, kernel_shape = [3, 3], pads = [0, 0, 0, 0], strides = [1, 1]](%pad_before_distill_conv4_2_T_ca20ed28, %distill_conv4_2/weights/read_T_84155f43)\r\n  %distill_conv4_2/Conv2D = Transpose[perm = [0, 2, 3, 1]](%distill_conv4_2/Conv2D_cb2641b7)\r\n  %distill_conv4_2/biases/read = Identity(%distill_conv4_2/biases)\r\n  %distill_conv4_2/BiasAdd = Add(%distill_conv4_2/Conv2D, %distill_conv4_2/biases/read)\r\n  %distill_relu4_2 = Relu(%distill_conv4_2/BiasAdd)\r\n  %distill_relu4_2_T_e3ba7c20 = Transpose[perm = [0, 3, 1, 2]](%distill_relu4_2)\r\n  %distill_pool4_82266592 = MaxPool[kernel_shape = [2, 1], pads = [0, 0, 1, 0], strides = [2, 1]](%distill_relu4_2_T_e3ba7c20)\r\n  %distill_pool4 = Transpose[perm = [0, 2, 3, 1]](%distill_pool4_82266592)\r\n  %distill_conv5_1s/weights/read = Identity(%distill_conv5_1s/weights)\r\n  %distill_conv5_1s/weights/read_T_7de196ca = Transpose[perm = [3, 2, 0, 1]](%distill_conv5_1s/weights/read)\r\n  %distill_pool4_T_612d6594 = Transpose[perm = [0, 3, 1, 2]](%distill_pool4)\r\n  %distill_conv5_1s/Conv2D_56258d8e = Conv[dilations = [1, 1], group = 1, kernel_shape = [1, 1], pads = [0, 0, 0, 0], strides = [1, 1]](%distill_pool4_T_612d6594, %distill_conv5_1s/weights/read_T_7de196ca)\r\n  %distill_conv5_1s/Conv2D = Transpose[perm = [0, 2, 3, 1]](%distill_conv5_1s/Conv2D_56258d8e)\r\n  %distill_conv5_1s/biases/read = Identity(%distill_conv5_1s/biases)\r\n  %distill_conv5_1s/BiasAdd = Add(%distill_conv5_1s/Conv2D, %distill_conv5_1s/biases/read)\r\n  %pad_before_distill_conv5_1 = Pad[mode = 'constant', pads = [0, 1, 1, 0, 0, 1, 1, 0], value = 0](%distill_conv5_1s/BiasAdd)\r\n  %distill_conv5_1/weights/read = Identity(%distill_conv5_1/weights)\r\n  %distill_conv5_1/weights/read_T_91e4722a = Transpose[perm = [3, 2, 0, 1]](%distill_conv5_1/weights/read)\r\n  %pad_before_distill_conv5_1_T_31516ebc = Transpose[perm = [0, 3, 1, 2]](%pad_before_distill_conv5_1)\r\n  %distill_conv5_1/Conv2D_d1936565 = Conv[dilations = [1, 1], group = 1, kernel_shape = [3, 3], pads = [0, 0, 0, 0], strides = [1, 1]](%pad_before_distill_conv5_1_T_31516ebc, %distill_conv5_1/weights/read_T_91e4722a)\r\n  %distill_conv5_1/Conv2D = Transpose[perm = [0, 2, 3, 1]](%distill_conv5_1/Conv2D_d1936565)\r\n  %distill_conv5_1/biases/read = Identity(%distill_conv5_1/biases)\r\n  %distill_conv5_1/BiasAdd = Add(%distill_conv5_1/Conv2D, %distill_conv5_1/biases/read)\r\n  %distill_conv5_1/distill_conv5_1 = Relu(%distill_conv5_1/BiasAdd)\r\n  %distill_conv5_2s/weights/read = Identity(%distill_conv5_2s/weights)\r\n  %distill_conv5_2s/weights/read_T_69841f4a = Transpose[perm = [3, 2, 0, 1]](%distill_conv5_2s/weights/read)\r\n  %distill_conv5_1/distill_conv5_1_T_3fdba051 = Transpose[perm = [0, 3, 1, 2]](%distill_conv5_1/distill_conv5_1)\r\n  %distill_conv5_2s/Conv2D_2ddbfae7 = Conv[dilations = [1, 1], group = 1, kernel_shape = [1, 1], pads = [0, 0, 0, 0], strides = [1, 1]](%distill_conv5_1/distill_conv5_1_T_3fdba051, %distill_conv5_2s/weights/read_T_69841f4a)\r\n  %distill_conv5_2s/Conv2D = Transpose[perm = [0, 2, 3, 1]](%distill_conv5_2s/Conv2D_2ddbfae7)\r\n  %distill_conv5_2s/biases/read = Identity(%distill_conv5_2s/biases)\r\n  %distill_conv5_2s/BiasAdd = Add(%distill_conv5_2s/Conv2D, %distill_conv5_2s/biases/read)\r\n  %pad_before_distill_conv5_2 = Pad[mode = 'constant', pads = [0, 1, 1, 0, 0, 1, 1, 0], value = 0](%distill_conv5_2s/BiasAdd)\r\n  %distill_conv5_2/weights/read = Identity(%distill_conv5_2/weights)\r\n  %distill_conv5_2/weights/read_T_e8994a83 = Transpose[perm = [3, 2, 0, 1]](%distill_conv5_2/weights/read)\r\n  %pad_before_distill_conv5_2_T_5d4b00f1 = Transpose[perm = [0, 3, 1, 2]](%pad_before_distill_conv5_2)\r\n  %distill_conv5_2/Conv2D_fb63539e = Conv[dilations = [1, 1], group = 1, kernel_shape = [3, 3], pads = [0, 0, 0, 0], strides = [1, 1]](%pad_before_distill_conv5_2_T_5d4b00f1, %distill_conv5_2/weights/read_T_e8994a83)\r\n  %distill_conv5_2/Conv2D = Transpose[perm = [0, 2, 3, 1]](%distill_conv5_2/Conv2D_fb63539e)\r\n  %distill_conv5_2/biases/read = Identity(%distill_conv5_2/biases)\r\n  %distill_conv5_2/BiasAdd = Add(%distill_conv5_2/Conv2D, %distill_conv5_2/biases/read)\r\n  %distill_relu5_2 = Relu(%distill_conv5_2/BiasAdd)\r\n  %distill_convfeat/weights/read = Identity(%distill_convfeat/weights)\r\n  %distill_convfeat/weights/read_T_d5149e4a = Transpose[perm = [3, 2, 0, 1]](%distill_convfeat/weights/read)\r\n  %distill_relu5_2_T_a295036d = Transpose[perm = [0, 3, 1, 2]](%distill_relu5_2)\r\n  %distill_convfeat/Conv2D_7ea3f37d = Conv[dilations = [1, 1], group = 1, kernel_shape = [1, 1], pads = [0, 0, 0, 0], strides = [1, 1]](%distill_relu5_2_T_a295036d, %distill_convfeat/weights/read_T_d5149e4a)\r\n  %distill_convfeat/Conv2D = Transpose[perm = [0, 2, 3, 1]](%distill_convfeat/Conv2D_7ea3f37d)\r\n  %im2seq/Reshape = Reshape(%distill_convfeat/Conv2D, %im2seq/Reshape/shape)\r\n  return %distill_convfeat/Conv2D\r\n}\r\n`",
        "reactions": {
            "url": "https://api.github.com/repos/microsoft/onnxruntime/issues/comments/481154883/reactions",
            "total_count": 0,
            "+1": 0,
            "-1": 0,
            "laugh": 0,
            "hooray": 0,
            "confused": 0,
            "heart": 0,
            "rocket": 0,
            "eyes": 0
        },
        "performed_via_github_app": null,
        "event": "commented",
        "actor": {
            "login": "YuchaoZheng",
            "id": 29890494,
            "node_id": "MDQ6VXNlcjI5ODkwNDk0",
            "avatar_url": "https://avatars.githubusercontent.com/u/29890494?v=4",
            "gravatar_id": "",
            "url": "https://api.github.com/users/YuchaoZheng",
            "html_url": "https://github.com/YuchaoZheng",
            "followers_url": "https://api.github.com/users/YuchaoZheng/followers",
            "following_url": "https://api.github.com/users/YuchaoZheng/following{/other_user}",
            "gists_url": "https://api.github.com/users/YuchaoZheng/gists{/gist_id}",
            "starred_url": "https://api.github.com/users/YuchaoZheng/starred{/owner}{/repo}",
            "subscriptions_url": "https://api.github.com/users/YuchaoZheng/subscriptions",
            "organizations_url": "https://api.github.com/users/YuchaoZheng/orgs",
            "repos_url": "https://api.github.com/users/YuchaoZheng/repos",
            "events_url": "https://api.github.com/users/YuchaoZheng/events{/privacy}",
            "received_events_url": "https://api.github.com/users/YuchaoZheng/received_events",
            "type": "User",
            "site_admin": false
        }
    },
    {
        "url": "https://api.github.com/repos/microsoft/onnxruntime/issues/comments/481237535",
        "html_url": "https://github.com/microsoft/onnxruntime/issues/310#issuecomment-481237535",
        "issue_url": "https://api.github.com/repos/microsoft/onnxruntime/issues/310",
        "id": 481237535,
        "node_id": "MDEyOklzc3VlQ29tbWVudDQ4MTIzNzUzNQ==",
        "user": {
            "login": "YuchaoZheng",
            "id": 29890494,
            "node_id": "MDQ6VXNlcjI5ODkwNDk0",
            "avatar_url": "https://avatars.githubusercontent.com/u/29890494?v=4",
            "gravatar_id": "",
            "url": "https://api.github.com/users/YuchaoZheng",
            "html_url": "https://github.com/YuchaoZheng",
            "followers_url": "https://api.github.com/users/YuchaoZheng/followers",
            "following_url": "https://api.github.com/users/YuchaoZheng/following{/other_user}",
            "gists_url": "https://api.github.com/users/YuchaoZheng/gists{/gist_id}",
            "starred_url": "https://api.github.com/users/YuchaoZheng/starred{/owner}{/repo}",
            "subscriptions_url": "https://api.github.com/users/YuchaoZheng/subscriptions",
            "organizations_url": "https://api.github.com/users/YuchaoZheng/orgs",
            "repos_url": "https://api.github.com/users/YuchaoZheng/repos",
            "events_url": "https://api.github.com/users/YuchaoZheng/events{/privacy}",
            "received_events_url": "https://api.github.com/users/YuchaoZheng/received_events",
            "type": "User",
            "site_admin": false
        },
        "created_at": "2019-04-09T12:50:40Z",
        "updated_at": "2019-04-09T12:50:40Z",
        "author_association": "NONE",
        "body": "You shoule use int64 to solve the problem",
        "reactions": {
            "url": "https://api.github.com/repos/microsoft/onnxruntime/issues/comments/481237535/reactions",
            "total_count": 2,
            "+1": 2,
            "-1": 0,
            "laugh": 0,
            "hooray": 0,
            "confused": 0,
            "heart": 0,
            "rocket": 0,
            "eyes": 0
        },
        "performed_via_github_app": null,
        "event": "commented",
        "actor": {
            "login": "YuchaoZheng",
            "id": 29890494,
            "node_id": "MDQ6VXNlcjI5ODkwNDk0",
            "avatar_url": "https://avatars.githubusercontent.com/u/29890494?v=4",
            "gravatar_id": "",
            "url": "https://api.github.com/users/YuchaoZheng",
            "html_url": "https://github.com/YuchaoZheng",
            "followers_url": "https://api.github.com/users/YuchaoZheng/followers",
            "following_url": "https://api.github.com/users/YuchaoZheng/following{/other_user}",
            "gists_url": "https://api.github.com/users/YuchaoZheng/gists{/gist_id}",
            "starred_url": "https://api.github.com/users/YuchaoZheng/starred{/owner}{/repo}",
            "subscriptions_url": "https://api.github.com/users/YuchaoZheng/subscriptions",
            "organizations_url": "https://api.github.com/users/YuchaoZheng/orgs",
            "repos_url": "https://api.github.com/users/YuchaoZheng/repos",
            "events_url": "https://api.github.com/users/YuchaoZheng/events{/privacy}",
            "received_events_url": "https://api.github.com/users/YuchaoZheng/received_events",
            "type": "User",
            "site_admin": false
        }
    },
    {
        "url": "https://api.github.com/repos/microsoft/onnxruntime/issues/comments/518213306",
        "html_url": "https://github.com/microsoft/onnxruntime/issues/310#issuecomment-518213306",
        "issue_url": "https://api.github.com/repos/microsoft/onnxruntime/issues/310",
        "id": 518213306,
        "node_id": "MDEyOklzc3VlQ29tbWVudDUxODIxMzMwNg==",
        "user": {
            "login": "ajaysg-zz",
            "id": 22977639,
            "node_id": "MDQ6VXNlcjIyOTc3NjM5",
            "avatar_url": "https://avatars.githubusercontent.com/u/22977639?v=4",
            "gravatar_id": "",
            "url": "https://api.github.com/users/ajaysg-zz",
            "html_url": "https://github.com/ajaysg-zz",
            "followers_url": "https://api.github.com/users/ajaysg-zz/followers",
            "following_url": "https://api.github.com/users/ajaysg-zz/following{/other_user}",
            "gists_url": "https://api.github.com/users/ajaysg-zz/gists{/gist_id}",
            "starred_url": "https://api.github.com/users/ajaysg-zz/starred{/owner}{/repo}",
            "subscriptions_url": "https://api.github.com/users/ajaysg-zz/subscriptions",
            "organizations_url": "https://api.github.com/users/ajaysg-zz/orgs",
            "repos_url": "https://api.github.com/users/ajaysg-zz/repos",
            "events_url": "https://api.github.com/users/ajaysg-zz/events{/privacy}",
            "received_events_url": "https://api.github.com/users/ajaysg-zz/received_events",
            "type": "User",
            "site_admin": false
        },
        "created_at": "2019-08-05T12:26:25Z",
        "updated_at": "2019-08-05T12:26:25Z",
        "author_association": "NONE",
        "body": "how to use int64",
        "reactions": {
            "url": "https://api.github.com/repos/microsoft/onnxruntime/issues/comments/518213306/reactions",
            "total_count": 0,
            "+1": 0,
            "-1": 0,
            "laugh": 0,
            "hooray": 0,
            "confused": 0,
            "heart": 0,
            "rocket": 0,
            "eyes": 0
        },
        "performed_via_github_app": null,
        "event": "commented",
        "actor": {
            "login": "ajaysg-zz",
            "id": 22977639,
            "node_id": "MDQ6VXNlcjIyOTc3NjM5",
            "avatar_url": "https://avatars.githubusercontent.com/u/22977639?v=4",
            "gravatar_id": "",
            "url": "https://api.github.com/users/ajaysg-zz",
            "html_url": "https://github.com/ajaysg-zz",
            "followers_url": "https://api.github.com/users/ajaysg-zz/followers",
            "following_url": "https://api.github.com/users/ajaysg-zz/following{/other_user}",
            "gists_url": "https://api.github.com/users/ajaysg-zz/gists{/gist_id}",
            "starred_url": "https://api.github.com/users/ajaysg-zz/starred{/owner}{/repo}",
            "subscriptions_url": "https://api.github.com/users/ajaysg-zz/subscriptions",
            "organizations_url": "https://api.github.com/users/ajaysg-zz/orgs",
            "repos_url": "https://api.github.com/users/ajaysg-zz/repos",
            "events_url": "https://api.github.com/users/ajaysg-zz/events{/privacy}",
            "received_events_url": "https://api.github.com/users/ajaysg-zz/received_events",
            "type": "User",
            "site_admin": false
        }
    },
    {
        "url": "https://api.github.com/repos/microsoft/onnxruntime/issues/comments/518213498",
        "html_url": "https://github.com/microsoft/onnxruntime/issues/310#issuecomment-518213498",
        "issue_url": "https://api.github.com/repos/microsoft/onnxruntime/issues/310",
        "id": 518213498,
        "node_id": "MDEyOklzc3VlQ29tbWVudDUxODIxMzQ5OA==",
        "user": {
            "login": "ajaysg-zz",
            "id": 22977639,
            "node_id": "MDQ6VXNlcjIyOTc3NjM5",
            "avatar_url": "https://avatars.githubusercontent.com/u/22977639?v=4",
            "gravatar_id": "",
            "url": "https://api.github.com/users/ajaysg-zz",
            "html_url": "https://github.com/ajaysg-zz",
            "followers_url": "https://api.github.com/users/ajaysg-zz/followers",
            "following_url": "https://api.github.com/users/ajaysg-zz/following{/other_user}",
            "gists_url": "https://api.github.com/users/ajaysg-zz/gists{/gist_id}",
            "starred_url": "https://api.github.com/users/ajaysg-zz/starred{/owner}{/repo}",
            "subscriptions_url": "https://api.github.com/users/ajaysg-zz/subscriptions",
            "organizations_url": "https://api.github.com/users/ajaysg-zz/orgs",
            "repos_url": "https://api.github.com/users/ajaysg-zz/repos",
            "events_url": "https://api.github.com/users/ajaysg-zz/events{/privacy}",
            "received_events_url": "https://api.github.com/users/ajaysg-zz/received_events",
            "type": "User",
            "site_admin": false
        },
        "created_at": "2019-08-05T12:27:03Z",
        "updated_at": "2019-08-05T12:27:03Z",
        "author_association": "NONE",
        "body": "my model only accepts float inputs while exporting to onnx",
        "reactions": {
            "url": "https://api.github.com/repos/microsoft/onnxruntime/issues/comments/518213498/reactions",
            "total_count": 0,
            "+1": 0,
            "-1": 0,
            "laugh": 0,
            "hooray": 0,
            "confused": 0,
            "heart": 0,
            "rocket": 0,
            "eyes": 0
        },
        "performed_via_github_app": null,
        "event": "commented",
        "actor": {
            "login": "ajaysg-zz",
            "id": 22977639,
            "node_id": "MDQ6VXNlcjIyOTc3NjM5",
            "avatar_url": "https://avatars.githubusercontent.com/u/22977639?v=4",
            "gravatar_id": "",
            "url": "https://api.github.com/users/ajaysg-zz",
            "html_url": "https://github.com/ajaysg-zz",
            "followers_url": "https://api.github.com/users/ajaysg-zz/followers",
            "following_url": "https://api.github.com/users/ajaysg-zz/following{/other_user}",
            "gists_url": "https://api.github.com/users/ajaysg-zz/gists{/gist_id}",
            "starred_url": "https://api.github.com/users/ajaysg-zz/starred{/owner}{/repo}",
            "subscriptions_url": "https://api.github.com/users/ajaysg-zz/subscriptions",
            "organizations_url": "https://api.github.com/users/ajaysg-zz/orgs",
            "repos_url": "https://api.github.com/users/ajaysg-zz/repos",
            "events_url": "https://api.github.com/users/ajaysg-zz/events{/privacy}",
            "received_events_url": "https://api.github.com/users/ajaysg-zz/received_events",
            "type": "User",
            "site_admin": false
        }
    },
    {
        "actor": {
            "login": "snnn",
            "id": 856316,
            "node_id": "MDQ6VXNlcjg1NjMxNg==",
            "avatar_url": "https://avatars.githubusercontent.com/u/856316?v=4",
            "gravatar_id": "",
            "url": "https://api.github.com/users/snnn",
            "html_url": "https://github.com/snnn",
            "followers_url": "https://api.github.com/users/snnn/followers",
            "following_url": "https://api.github.com/users/snnn/following{/other_user}",
            "gists_url": "https://api.github.com/users/snnn/gists{/gist_id}",
            "starred_url": "https://api.github.com/users/snnn/starred{/owner}{/repo}",
            "subscriptions_url": "https://api.github.com/users/snnn/subscriptions",
            "organizations_url": "https://api.github.com/users/snnn/orgs",
            "repos_url": "https://api.github.com/users/snnn/repos",
            "events_url": "https://api.github.com/users/snnn/events{/privacy}",
            "received_events_url": "https://api.github.com/users/snnn/received_events",
            "type": "User",
            "site_admin": false
        },
        "created_at": "2019-08-05T17:20:25Z",
        "updated_at": "2019-08-05T17:20:25Z",
        "source": {
            "type": "issue",
            "issue": {
                "url": "https://api.github.com/repos/microsoft/onnxruntime/issues/1559",
                "repository_url": "https://api.github.com/repos/microsoft/onnxruntime",
                "labels_url": "https://api.github.com/repos/microsoft/onnxruntime/issues/1559/labels{/name}",
                "comments_url": "https://api.github.com/repos/microsoft/onnxruntime/issues/1559/comments",
                "events_url": "https://api.github.com/repos/microsoft/onnxruntime/issues/1559/events",
                "html_url": "https://github.com/microsoft/onnxruntime/issues/1559",
                "id": 476795355,
                "node_id": "MDU6SXNzdWU0NzY3OTUzNTU=",
                "number": 1559,
                "title": "with reference to #1542 ",
                "user": {
                    "login": "ajaysg-zz",
                    "id": 22977639,
                    "node_id": "MDQ6VXNlcjIyOTc3NjM5",
                    "avatar_url": "https://avatars.githubusercontent.com/u/22977639?v=4",
                    "gravatar_id": "",
                    "url": "https://api.github.com/users/ajaysg-zz",
                    "html_url": "https://github.com/ajaysg-zz",
                    "followers_url": "https://api.github.com/users/ajaysg-zz/followers",
                    "following_url": "https://api.github.com/users/ajaysg-zz/following{/other_user}",
                    "gists_url": "https://api.github.com/users/ajaysg-zz/gists{/gist_id}",
                    "starred_url": "https://api.github.com/users/ajaysg-zz/starred{/owner}{/repo}",
                    "subscriptions_url": "https://api.github.com/users/ajaysg-zz/subscriptions",
                    "organizations_url": "https://api.github.com/users/ajaysg-zz/orgs",
                    "repos_url": "https://api.github.com/users/ajaysg-zz/repos",
                    "events_url": "https://api.github.com/users/ajaysg-zz/events{/privacy}",
                    "received_events_url": "https://api.github.com/users/ajaysg-zz/received_events",
                    "type": "User",
                    "site_admin": false
                },
                "labels": [
                    {
                        "id": 1220611565,
                        "node_id": "MDU6TGFiZWwxMjIwNjExNTY1",
                        "url": "https://api.github.com/repos/microsoft/onnxruntime/labels/converter",
                        "name": "converter",
                        "color": "0E8A16",
                        "default": false,
                        "description": "related to ONNX converters"
                    }
                ],
                "state": "closed",
                "locked": false,
                "assignee": null,
                "assignees": [],
                "milestone": null,
                "comments": 3,
                "created_at": "2019-08-05T10:59:05Z",
                "updated_at": "2019-09-18T00:17:48Z",
                "closed_at": "2019-09-18T00:17:38Z",
                "author_association": "NONE",
                "active_lock_reason": null,
                "repository": {
                    "id": 156939672,
                    "node_id": "MDEwOlJlcG9zaXRvcnkxNTY5Mzk2NzI=",
                    "name": "onnxruntime",
                    "full_name": "microsoft/onnxruntime",
                    "private": false,
                    "owner": {
                        "login": "microsoft",
                        "id": 6154722,
                        "node_id": "MDEyOk9yZ2FuaXphdGlvbjYxNTQ3MjI=",
                        "avatar_url": "https://avatars.githubusercontent.com/u/6154722?v=4",
                        "gravatar_id": "",
                        "url": "https://api.github.com/users/microsoft",
                        "html_url": "https://github.com/microsoft",
                        "followers_url": "https://api.github.com/users/microsoft/followers",
                        "following_url": "https://api.github.com/users/microsoft/following{/other_user}",
                        "gists_url": "https://api.github.com/users/microsoft/gists{/gist_id}",
                        "starred_url": "https://api.github.com/users/microsoft/starred{/owner}{/repo}",
                        "subscriptions_url": "https://api.github.com/users/microsoft/subscriptions",
                        "organizations_url": "https://api.github.com/users/microsoft/orgs",
                        "repos_url": "https://api.github.com/users/microsoft/repos",
                        "events_url": "https://api.github.com/users/microsoft/events{/privacy}",
                        "received_events_url": "https://api.github.com/users/microsoft/received_events",
                        "type": "Organization",
                        "site_admin": false
                    },
                    "html_url": "https://github.com/microsoft/onnxruntime",
                    "description": "ONNX Runtime: cross-platform, high performance ML inferencing and training accelerator",
                    "fork": false,
                    "url": "https://api.github.com/repos/microsoft/onnxruntime",
                    "forks_url": "https://api.github.com/repos/microsoft/onnxruntime/forks",
                    "keys_url": "https://api.github.com/repos/microsoft/onnxruntime/keys{/key_id}",
                    "collaborators_url": "https://api.github.com/repos/microsoft/onnxruntime/collaborators{/collaborator}",
                    "teams_url": "https://api.github.com/repos/microsoft/onnxruntime/teams",
                    "hooks_url": "https://api.github.com/repos/microsoft/onnxruntime/hooks",
                    "issue_events_url": "https://api.github.com/repos/microsoft/onnxruntime/issues/events{/number}",
                    "events_url": "https://api.github.com/repos/microsoft/onnxruntime/events",
                    "assignees_url": "https://api.github.com/repos/microsoft/onnxruntime/assignees{/user}",
                    "branches_url": "https://api.github.com/repos/microsoft/onnxruntime/branches{/branch}",
                    "tags_url": "https://api.github.com/repos/microsoft/onnxruntime/tags",
                    "blobs_url": "https://api.github.com/repos/microsoft/onnxruntime/git/blobs{/sha}",
                    "git_tags_url": "https://api.github.com/repos/microsoft/onnxruntime/git/tags{/sha}",
                    "git_refs_url": "https://api.github.com/repos/microsoft/onnxruntime/git/refs{/sha}",
                    "trees_url": "https://api.github.com/repos/microsoft/onnxruntime/git/trees{/sha}",
                    "statuses_url": "https://api.github.com/repos/microsoft/onnxruntime/statuses/{sha}",
                    "languages_url": "https://api.github.com/repos/microsoft/onnxruntime/languages",
                    "stargazers_url": "https://api.github.com/repos/microsoft/onnxruntime/stargazers",
                    "contributors_url": "https://api.github.com/repos/microsoft/onnxruntime/contributors",
                    "subscribers_url": "https://api.github.com/repos/microsoft/onnxruntime/subscribers",
                    "subscription_url": "https://api.github.com/repos/microsoft/onnxruntime/subscription",
                    "commits_url": "https://api.github.com/repos/microsoft/onnxruntime/commits{/sha}",
                    "git_commits_url": "https://api.github.com/repos/microsoft/onnxruntime/git/commits{/sha}",
                    "comments_url": "https://api.github.com/repos/microsoft/onnxruntime/comments{/number}",
                    "issue_comment_url": "https://api.github.com/repos/microsoft/onnxruntime/issues/comments{/number}",
                    "contents_url": "https://api.github.com/repos/microsoft/onnxruntime/contents/{+path}",
                    "compare_url": "https://api.github.com/repos/microsoft/onnxruntime/compare/{base}...{head}",
                    "merges_url": "https://api.github.com/repos/microsoft/onnxruntime/merges",
                    "archive_url": "https://api.github.com/repos/microsoft/onnxruntime/{archive_format}{/ref}",
                    "downloads_url": "https://api.github.com/repos/microsoft/onnxruntime/downloads",
                    "issues_url": "https://api.github.com/repos/microsoft/onnxruntime/issues{/number}",
                    "pulls_url": "https://api.github.com/repos/microsoft/onnxruntime/pulls{/number}",
                    "milestones_url": "https://api.github.com/repos/microsoft/onnxruntime/milestones{/number}",
                    "notifications_url": "https://api.github.com/repos/microsoft/onnxruntime/notifications{?since,all,participating}",
                    "labels_url": "https://api.github.com/repos/microsoft/onnxruntime/labels{/name}",
                    "releases_url": "https://api.github.com/repos/microsoft/onnxruntime/releases{/id}",
                    "deployments_url": "https://api.github.com/repos/microsoft/onnxruntime/deployments",
                    "created_at": "2018-11-10T02:22:53Z",
                    "updated_at": "2022-12-20T19:02:34Z",
                    "pushed_at": "2022-12-20T18:51:37Z",
                    "git_url": "git://github.com/microsoft/onnxruntime.git",
                    "ssh_url": "git@github.com:microsoft/onnxruntime.git",
                    "clone_url": "https://github.com/microsoft/onnxruntime.git",
                    "svn_url": "https://github.com/microsoft/onnxruntime",
                    "homepage": "https://www.onnxruntime.ai",
                    "size": 1018648,
                    "stargazers_count": 7949,
                    "watchers_count": 7949,
                    "language": "C++",
                    "has_issues": true,
                    "has_projects": true,
                    "has_downloads": true,
                    "has_wiki": true,
                    "has_pages": true,
                    "has_discussions": true,
                    "forks_count": 1862,
                    "mirror_url": null,
                    "archived": false,
                    "disabled": false,
                    "open_issues_count": 1452,
                    "license": {
                        "key": "mit",
                        "name": "MIT License",
                        "spdx_id": "MIT",
                        "url": "https://api.github.com/licenses/mit",
                        "node_id": "MDc6TGljZW5zZTEz"
                    },
                    "allow_forking": true,
                    "is_template": false,
                    "web_commit_signoff_required": false,
                    "topics": [
                        "ai-framework",
                        "deep-learning",
                        "hacktoberfest",
                        "hardware-acceleration",
                        "machine-learning",
                        "neural-networks",
                        "onnx",
                        "pytorch",
                        "scikit-learn",
                        "tensorflow"
                    ],
                    "visibility": "public",
                    "forks": 1862,
                    "open_issues": 1452,
                    "watchers": 7949,
                    "default_branch": "main",
                    "permissions": {
                        "admin": false,
                        "maintain": true,
                        "push": true,
                        "triage": true,
                        "pull": true
                    }
                },
                "body": "@snnn its a bug with onnxrt. before exporting the pytorch model to onnx, i have converted the model to float using the command\r\n\r\n`model1=model.float()`\r\n\r\nnow all the tensors in the model1 is float.\r\n\r\n`mel_extra=torch.tensor(np.full((1,80,222),-10.0)).float()`\r\n`dummy_input=torch.autograd.Variable(mel_extra).cuda().float()`\r\n`audio = torch.tensor(np.full((1,222), -0.5)).float()`\r\n`audio_input = torch.autograd.Variable(audio).cuda().float()`\r\n`torch.onnx.export(model1, ((dummy_input, audio_input),), \"./waveglow.onnx\")`\r\n\r\nThen i passed the float tensors as mentioned above and traced the onnx graph. Onnx export was successful. When i try to use it in onnxrt by starting the session \r\n\r\n`sess = rt.InferenceSession(\"../waveglow.onnx\")`\r\n\r\nit throws the error referenced in the issue. ",
                "reactions": {
                    "url": "https://api.github.com/repos/microsoft/onnxruntime/issues/1559/reactions",
                    "total_count": 0,
                    "+1": 0,
                    "-1": 0,
                    "laugh": 0,
                    "hooray": 0,
                    "confused": 0,
                    "heart": 0,
                    "rocket": 0,
                    "eyes": 0
                },
                "timeline_url": "https://api.github.com/repos/microsoft/onnxruntime/issues/1559/timeline",
                "performed_via_github_app": null,
                "state_reason": "completed"
            }
        },
        "event": "cross-referenced"
    }
]