…
1)]      0                                            \r\n__________________________________________________________________________________________________\r\ntile_barrel_Lr2 (InputLayer)    [(None, 7, 11)]      0                                            \r\n__________________________________________________________________________________________________\r\ntile_barrel_Lr3 (InputLayer)    [(None, 7, 11)]      0                                            \r\n__________________________________________________________________________________________________\r\nreshape_7 (Reshape)             (None, 56, 11, 1)    0           em_barrel_Lr1[0][0]              \r\n__________________________________________________________________________________________________\r\ntracks_image (InputLayer)       [(None, 4, 13)]      0                                            \r\n__________________________________________________________________________________________________\r\nreshape_1 (Reshape)             (None, 7, 11, 1)     0           em_barrel_Lr0[0][0]              \r\n__________________________________________________________________________________________________\r\nreshape_2 (Reshape)             (None, 7, 11, 1)     0           em_barrel_Lr2[0][0]              \r\n__________________________________________________________________________________________________\r\nreshape_3 (Reshape)             (None, 7, 11, 1)     0           em_barrel_Lr3[0][0]              \r\n__________________________________________________________________________________________________\r\nreshape_4 (Reshape)             (None, 7, 11, 1)     0           tile_barrel_Lr1[0][0]            \r\n__________________________________________________________________________________________________\r\nreshape_5 (Reshape)             (None, 7, 11, 1)     0           tile_barrel_Lr2[0][0]            \r\n__________________________________________________________________________________________________\r\nreshape_6 (Reshape)             (None, 7, 11, 1)     0           tile_barrel_Lr3[0][0]            \r\n__________________________________________________________________________________________________\r\nconv2d_4 (Conv2D)               (None, 54, 9, 200)   2000        reshape_7[0][0]                  \r\n__________________________________________________________________________________________________\r\nreshape (Reshape)               (None, 4, 13, 1)     0           tracks_image[0][0]               \r\n__________________________________________________________________________________________________\r\nconcatenate (Concatenate)       (None, 7, 11, 6)     0           reshape_1[0][0]                  \r\n                                                                 reshape_2[0][0]                  \r\n                                                                 reshape_3[0][0]                  \r\n                                                                 reshape_4[0][0]                  \r\n                                                                 reshape_5[0][0]                  \r\n                                                                 reshape_6[0][0]                  \r\n__________________________________________________________________________________________________\r\nleaky_re_lu_4 (LeakyReLU)       (None, 54, 9, 200)   0           conv2d_4[0][0]                   \r\n__________________________________________________________________________________________________\r\nconv2d (Conv2D)                 (None, 4, 13, 200)   400         reshape[0][0]                    \r\n__________________________________________________________________________________________________\r\nconv2d_2 (Conv2D)               (None, 6, 9, 200)    7400        concatenate[0][0]                \r\n__________________________________________________________________________________________________\r\nmax_pooling2d (MaxPooling2D)    (None, 27, 4, 200)   0           leaky_re_lu_4[0][0]              \r\n__________________________________________________________________________________________________\r\nleaky_re_lu (LeakyReLU)         (None, 4, 13, 200)   0           conv2d[0][0]                     \r\n__________________________________________________________________________________________________\r\nleaky_re_lu_2 (LeakyReLU)       (None, 6, 9, 200)    0           conv2d_2[0][0]                   \r\n__________________________________________________________________________________________________\r\ndropout_4 (Dropout)             (None, 27, 4, 200)   0           max_pooling2d[0][0]              \r\n__________________________________________________________________________________________________\r\ndropout (Dropout)               (None, 4, 13, 200)   0           leaky_re_lu[0][0]                \r\n__________________________________________________________________________________________________\r\ndropout_2 (Dropout)             (None, 6, 9, 200)    0           leaky_re_lu_2[0][0]              \r\n__________________________________________________________________________________________________\r\nconv2d_5 (Conv2D)               (None, 25, 2, 200)   360200      dropout_4[0][0]                  \r\n__________________________________________________________________________________________________\r\nconv2d_1 (Conv2D)               (None, 4, 13, 200)   40200       dropout[0][0]                    \r\n__________________________________________________________________________________________________\r\nconv2d_3 (Conv2D)               (None, 5, 7, 200)    240200      dropout_2[0][0]                  \r\n__________________________________________________________________________________________________\r\nleaky_re_lu_5 (LeakyReLU)       (None, 25, 2, 200)   0           conv2d_5[0][0]                   \r\n__________________________________________________________________________________________________\r\nleaky_re_lu_1 (LeakyReLU)       (None, 4, 13, 200)   0           conv2d_1[0][0]                   \r\n__________________________________________________________________________________________________\r\nleaky_re_lu_3 (LeakyReLU)       (None, 5, 7, 200)    0           conv2d_3[0][0]                   \r\n__________________________________________________________________________________________________\r\nmax_pooling2d_1 (MaxPooling2D)  (None, 12, 1, 200)   0           leaky_re_lu_5[0][0]              \r\n__________________________________________________________________________________________________\r\ndropout_1 (Dropout)             (None, 4, 13, 200)   0           leaky_re_lu_1[0][0]              \r\n__________________________________________________________________________________________________\r\ndropout_3 (Dropout)             (None, 5, 7, 200)    0           leaky_re_lu_3[0][0]              \r\n__________________________________________________________________________________________________\r\ndropout_5 (Dropout)             (None, 12, 1, 200)   0           max_pooling2d_1[0][0]            \r\n__________________________________________________________________________________________________\r\np_Eratio (InputLayer)           [(None,)]            0                                            \r\n__________________________________________________________________________________________________\r\np_Reta (InputLayer)             [(None,)]     
…
         0                                            \r\n__________________________________________________________________________________________________\r\np_nTracks (InputLayer)          [(None,)]            0                                            \r\n__________________________________________________________________________________________________\r\np_sct_weight_charge (InputLayer [(None,)]            0                                            \r\n__________________________________________________________________________________________________\r\nflatten (Flatten)               (None, 10400)        0           dropout_1[0][0]                  \r\n__________________________________________________________________________________________________\r\nflatten_1 (Flatten)             (None, 7000)         0           dropout_3[0][0]                  \r\n__________________________________________________________________________________________________\r\nflatten_2 (Flatten)             (None, 2400)         0           dropout_5[0][0]                  \r\n__________________________________________________________________________________________________\r\nflatten_3 (Flatten)             (None, 1)            0           p_Eratio[0][0]                   \r\n__________________________________________________________________________________________________\r\nflatten_4 (Flatten)             (None, 1)            0           p_Reta[0][0]                     \r\n__________________________________________________________________________________________________\r\nflatten_5 (Flatten)             (None, 1)            0           p_Rhad[0][0]                     \r\n__________________________________________________________________________________________________\r\nflatten_6 (Flatten)             (None, 1)            0           p_Rphi[0][0]                     \r\n__________________________________________________________________________________________________\r\nflatten_7 (Flatten)             (None, 1)            0           p_TRTPID[0][0]                   \r\n__________________________________________________________________________________________________\r\nflatten_8 (Flatten)             (None, 1)            0           p_numberOfSCTHits[0][0]          \r\n__________________________________________________________________________________________________\r\nflatten_9 (Flatten)             (None, 1)            0           p_ndof[0][0]                     \r\n__________________________________________________________________________________________________\r\nflatten_10 (Flatten)            (None, 1)            0           p_dPOverP[0][0]                  \r\n__________________________________________________________________________________________________\r\nflatten_11 (Flatten)            (None, 1)            0           p_deltaEta1[0][0]                \r\n__________________________________________________________________________________________________\r\nflatten_12 (Flatten)            (None, 1)            0           p_f1[0][0]                       \r\n__________________________________________________________________________________________________\r\nflatten_13 (Flatten)            (None, 1)            0           p_f3[0][0]                       \r\n__________________________________________________________________________________________________\r\nflatten_14 (Flatten)            (None, 1)            0           p_deltaPhiRescaled2[0][0]        \r\n__________________________________________________________________________________________________\r\nflatten_15 (Flatten)            (None, 1)            0           p_weta2[0][0]                    \r\n__________________________________________________________________________________________________\r\nflatten_16 (Flatten)            (None, 1)            0           p_d0[0][0]                       \r\n__________________________________________________________________________________________________\r\nflatten_17 (Flatten)            (None, 1)            0           p_d0Sig[0][0]                    \r\n__________________________________________________________________________________________________\r\nflatten_18 (Flatten)            (None, 1)            0           p_qd0Sig[0][0]                   \r\n__________________________________________________________________________________________________\r\nflatten_19 (Flatten)            (None, 1)            0           p_nTracks[0][0]                  \r\n__________________________________________________________________________________________________\r\nflatten_20 (Flatten)            (None, 1)            0           p_sct_weight_charge[0][0]        \r\n__________________________________________________________________________________________________\r\nconcatenate_1 (Concatenate)     (None, 19818)        0           flatten[0][0]                    \r\n                                                                 flatten_1[0][0]                  \r\n                                                                 flatten_2[0][0]                  \r\n                                                                 flatten_3[0][0]                  \r\n                                              
…
                     flatten_16[0][0]                 \r\n                                                                 flatten_17[0][0]                 \r\n                                                                 flatten_18[0][0]                 \r\n                                                                 flatten_19[0][0]                 \r\n                                                                 flatten_20[0][0]                 \r\n__________________________________________________________________________________________________\r\ndense (Dense)                   (None, 200)          3963800     concatenate_1[0][0]              \r\n__________________________________________________________________________________________________\r\nleaky_re_lu_6 (LeakyReLU)       (None, 200)          0           dense[0][0]                      \r\n__________________________________________________________________________________________________\r\ndropout_6 (Dropout)             (None, 200)          0           leaky_re_lu_6[0][0]              \r\n__________________________________________________________________________________________________\r\ndense_1 (Dense)                 (None, 200)          40200       dropout_6[0][0]                  \r\n__________________________________________________________________________________________________\r\nleaky_re_lu_7 (LeakyReLU)       (None, 200)          0           dense_1[0][0]                    \r\n__________________________________________________________________________________________________\r\ndropout_7 (Dropout)             (None, 200)          0           leaky_re_lu_7[0][0]              \r\n__________________________________________________________________________________________________\r\ndense_2 (Dense)                 (None, 2)            402         dropout_7[0][0]                  \r\n==================================================================================================\r\nTotal params: 4,654,802\r\nTrainable params: 4,654,802\r\nNon-trainable params: 0\r\n__________________________________________________________________________________________________\r\n```\r\nwhich converts to .onnx model, and I have a sample to inpu
…
